_________________________________________________________________
Layer (type)                 Output Shape              Param #   
=================================================================
bidirectional_5 (Bidirection (None, 20, 40)            11360     
_________________________________________________________________
dropout_10 (Dropout)         (None, 20, 40)            0         
_________________________________________________________________
bidirectional_6 (Bidirection (None, 20, 40)            9760      
_________________________________________________________________
dropout_11 (Dropout)         (None, 20, 40)            0         
_________________________________________________________________
bidirectional_7 (Bidirection (None, 40)                9760      
_________________________________________________________________
dropout_12 (Dropout)         (None, 40)                0         
_________________________________________________________________
dense_15 (Dense)             (None, 10)                410       
_________________________________________________________________
dense_16 (Dense)             (None, 1)                 11        
=================================================================
Total params: 31,301
Trainable params: 31,301
Non-trainable params: 0
_________________________________________________________________
