_________________________________________________________________
Layer (type)                 Output Shape              Param #   
=================================================================
lstm_5 (LSTM)                (None, 20, 20)            5680      
_________________________________________________________________
dropout_1 (Dropout)          (None, 20, 20)            0         
_________________________________________________________________
lstm_6 (LSTM)                (None, 20)                3280      
_________________________________________________________________
dropout_2 (Dropout)          (None, 20)                0         
_________________________________________________________________
dense_7 (Dense)              (None, 10)                210       
_________________________________________________________________
dense_8 (Dense)              (None, 1)                 11        
=================================================================
Total params: 9,181
Trainable params: 9,181
Non-trainable params: 0
_________________________________________________________________
